docs/EMNIST.onnx (onnx, 920066 bytes, 17 tensors)

conv.conv.0.weight f4 [24, 1, 3, 3]
0	0xbea6b08e	-0.32556576
1	0xbe5a6183	-0.2132626
2	0x3e9bea89	0.30452374
3	0xbedf01d0	-0.4355607
4	0x3e7d3315	0.24726517
5	0x3d8af55a	0.06785078
6	0xbdccebf0	-0.10005939
7	0x3ee989da	0.45612985
8	0x3dd99965	0.10624961
9	0xbe2e302a	-0.1701056
10	0xbe2af607	-0.16695414
11	0x3e86066c	0.26176775
12	0x3cb8f702	0.02257872
13	0xbebb2f92	-0.3655973
14	0xbea049e2	-0.31306368
15	0x3eaa0bcc	0.33212125
16	0x3e5db369	0.21650471
17	0xbee743a7	-0.45168802
18	0x3c6ecec2	0.014575662
19	0xbe2b15d4	-0.16707546
20	0x3e982eb0	0.2972312
21	0xbd008bf3	-0.031383466
22	0xbeca6476	-0.3952977
23	0xbf1bca5d	-0.60855657
24	0x3dbd4f25	0.09243611
25	0x3ecd5560	0.40104198
26	0xbe42c6ca	-0.19021145
27	0x3cd5fcb4	0.026121475
28	0x3ebdb761	0.3705397
29	0xbe8881ff	-0.2666168
30	0x3e60bc12	0.21946743
31	0x3eed3741	0.46331218
32	0xbe32bea6	-0.17455539
33	0xbe0820fd	-0.13293834
34	0xbe36cf44	-0.17852503
35	0xbed0a595	-0.4075133
36	0x3e207942	0.15671256
37	0xbe8d469c	-0.27592933
38	0xbf1fcd63	-0.6242277
39	0x3eab61cd	0.33473054
40	0xbe2b6564	-0.16737896
41	0xbe8065c8	-0.25077653
42	0x3e335814	0.17514068
43	0xbeb7b3ba	-0.35879308
44	0xbe94a15f	-0.29029366
45	0xbe58494d	-0.21121712
46	0x3e9ceffc	0.30651844
47	0xbdf42cfb	-0.11922642
48	0x3e82936a	0.25503093
49	0x3e3b4b68	0.18290484
50	0xbea3ffbc	-0.32031047
51	0x3efe1054	0.49621832
52	0xbec62236	-0.38697976
53	0xbe199fca	-0.15002361
54	0xbe1fe837	-0.15615927
55	0x3e219885	0.15780838
56	0x3ecbbdca	0.39793235
57	0xbdecf048	-0.115692675
58	0x3cd8dde7	0.026472999
59	0x3e47ba06	0.19504556
60	0xbf065349	-0.52470833
61	0x3da86b75	0.08223621
62	0xbd4f547d	-0.050617684
63	0x3df97fd7	0.12182587
64	0x3d975a29	0.073902436
65	0x3e599511	0.2124827
66	0x3e3c9479	0.18416013
67	0x3ea96048	0.3308127
68	0x3e57a44b	0.21058767
69	0x3e04f5b1	0.12984349
70	0x3e01f5a5	0.12691362
71	0x3e89c67a	0.26909238
72	0x3e22a9b4	0.15885049
73	0x3dfc9b87	0.12334352
74	0x3eceec32	0.40414578
75	0xbe9e5b31	-0.3092895
76	0x3d38c1bf	0.045106646
77	0x3d4f716c	0.050645277
78	0x3ea2ec48	0.31820893
79	0xbd230303	-0.039797794
80	0x3ebb51ba	0.3658579
81	0xbe770d42	-0.24126151
82	0x3ea4db57	0.32198593
83	0xbd1d0828	-0.038337857
84	0xbe056217	-0.130257
85	0xbe7a1f20	-0.24425936
86	0x3ee37860	0.44427776
87	0xbdde2e39	-0.1084866
88	0xbee0ba85	-0.43892303
89	0x3ec4b302	0.38417822
90	0x3e001583	0.12508206
91	0xbe4c6c3b	-0.19963162
92	0xbea1709e	-0.31531233
93	0xbe54f4ff	-0.20796584
94	0xbea62080	-0.3244667
95	0x3e8311de	0.2559957
96	0xbe9156e8	-0.28386617
97	0x3e6b12c7	0.22956382
98	0x3ea9fcb2	0.33200604
99	0x3df0b458	0.11753148
100	0xbccc3056	-0.024925392
101	0xbea44463	-0.32083425
102	0xbd05c28e	-0.032656245
103	0x3eb8efea	0.3612054
104	0x3efa2fc7	0.48864576
105	0xbe05c8a3	-0.13064818
106	0xbea313c1	-0.3185101
107	0xbdaa538f	-0.08316719
108	0x3ee99ef7	0.45629093
109	0xbe70a1ca	-0.23499218
110	0x3e82d381	0.2555199
111	0xbe3bc29d	-0.18335958
112	0xbeed9707	-0.46404287
113	0x3e395cbf	0.18101786
114	0x3df7a61a	0.12092228
115	0x3ebad9d1	0.36494306
116	0xbdd80835	-0.1054844
117	0x3ee63f7a	0.44970304
118	0x3eaeed4e	0.34165424
119	0x3ea1321b	0.3148354
120	0xbe66bdae	-0.22533295
121	0xbe833d40	-0.25632668
122	0x3c85042e	0.016237345
123	0xbee4f254	-0.44716132
124	0x3b229fae	0.0024814415
125	0x3cda2aa8	0.026631668
126	0xbeb278c3	-0.3485776
127	0xbe40bbe5	-0.18821676
128	0xbef6295c	-0.4807843
129	0xbe500824	-0.20315605
130	0xbe39a43d	-0.18129058
131	0xbe9d0497	-0.30667564
132	0x3e8cea8a	0.2752269
133	0x3e87c30f	0.26516005
134	0x3ea9663f	0.3308582
135	0xbe930493	-0.28714427
136	0x3e88f162	0.2674666
137	0x3e74f096	0.23919901
138	0xbe9e4bbf	-0.30917165
139	0xbe05ba81	-0.13059427
140	0x3e1ce81e	0.1532292
141	0xbdf45a7b	-0.1193132
142	0xbea843b3	-0.3286415
143	0xbe1c7154	-0.15277606
144	0xbe2de252	-0.16980866
145	0xbe8c84db	-0.2744511
146	0xbeb4b4b1	-0.35294107
147	0xbebbb692	-0.36662728
148	0xbe42648a	-0.18983665
149	0xbe640c6d	-0.22270365
150	0xbe947355	-0.2899424
151	0xbeaca372	-0.3371845
152	0xbf03ed68	-0.5153413
153	0xbdd979b0	-0.10618913
154	0xbe7ff613	-0.24996214
155	0xbf0fffce	-0.562497
156	0x3e728d8c	0.23686808
157	0x3b1e23b4	0.0024130167
158	0xbd949f05	-0.07256893
159	0x3e0f78d1	0.14010932
160	0x3ecd78aa	0.40131122
161	0x3ec34667	0.3813965
162	0x3e3821f6	0.17981705
163	0x3ec27a71	0.3798404
164	0xbe9ef672	-0.31047398
165	0xbecf7375	-0.40517774
166	0x3f220768	0.6329255
167	0xbebc5bdd	-0.36788836
168	0xbe8e00e2	-0.2773505
169	0x3e9a0c42	0.30087477
170	0x3e556e8a	0.20842949
171	0xbe9b1ea4	-0.30296814
172	0x3da90add	0.08254025
173	0x3e95767a	0.29191953
174	0x3efd21f7	0.49439976
175	0x3e982eec	0.297233
176	0xbd7c9992	-0.061669894
177	0xbe3af25a	-0.18256512
178	0xbee7d91b	-0.45282826
179	0xbcb6cd79	-0.022314774
180	0x3ea54d05	0.32285324
181	0xbe2b1f8c	-0.16711253
182	0xbeae9736	-0.3409974
183	0x3d730ac9	0.059336457
184	0xbc9a946b	-0.0188696
185	0xbec80fd8	-0.39074588
186	0x3ec3bc54	0.3822962
187	0x3ea436de	0.3207311
188	0xbd792003	-0.060821544
189	0x3ec5664c	0.3855461
190	0x3ea669c3	0.32502565
191	0xbef30c8a	-0.47470504
192	0x3d4b846d	0.049686838
193	0xbeca211e	-0.3947839
194	0xbe17c4d5	-0.14821179
195	0xbec379dc	-0.3817891
196	0xbe0847a5	-0.1330858
197	0xbda6234e	-0.081122026
198	0x3e291bef	0.16514562
199	0x3e6322eb	0.22181289
200	0x3ea9c4e8	0.3315804
201	0x3bf9ae0a	0.007619624
202	0xbdd1161e	-0.10209297
203	0x3d792c19	0.06083307
204	0x3e81516a	0.25257427
205	0x3c375d1b	0.011191632
206	0xbf07b120	-0.53004646
207	0x3ec3280c	0.3811649
208	0x3e4172ff	0.18891524
209	0x3e56472d	0.20925589
210	0x3ea8c825	0.32965198
211	0xbdf451cc	-0.11929664
212	0xbe9bb4b3	-0.304113
213	0xbec849d9	-0.3911884
214	0xbe9823a3	-0.2971469
215	0xbea6ce4f	-0.32579276

conv.conv.2.weight f4 [24]
0	0x3f489305	0.78349334
1	0x3fa480a2	1.2851756
2	0x3fa217b5	1.2663485
3	0x3f2bcf17	0.6711287
4	0x3fa7aa2e	1.309881
5	0x3f535198	0.8254638
6	0x3f237a4e	0.638585
7	0x3f3787e3	0.7169172
8	0x3f18db46	0.59709585
9	0x3f47eb3c	0.78093314
10	0x3f895001	1.072754
11	0x3f2cb686	0.6746601
12	0x3f3fe427	0.7495751
13	0x3f7ab790	0.97936344
14	0x3f84fb15	1.0389124
15	0x3f9a43b9	1.2051917
16	0x3faf1c31	1.3680478
17	0x3f6f79ed	0.9354542
18	0x3f3d9b0d	0.74064714
19	0x3f2c3e3c	0.6728246
20	0x3f64b03d	0.8933142
21	0x3fb627b8	1.4230871
22	0x3f4826bd	0.7818411
23	0x3f2ec938	0.68275785

conv.conv.2.bias f4 [24]
0	0x3d937ae2	0.072011724
1	0xbea3dc8d	-0.32004204
2	0xbdc03d12	-0.09386648
3	0xbd83bdf1	-0.06432713
4	0xbdcc5837	-0.09977763
5	0x3dbfb46e	0.09360586
6	0x3e495356	0.19660696
7	0xbef67caa	-0.48141986
8	0xbec122fc	-0.37722003
9	0x3d9a161b	0.075237475
10	0xbc715a84	-0.014731053
11	0xbebb0a6a	-0.36531383
12	0xbe2468e5	-0.16055639
13	0xbeb35e7c	-0.35033023
14	0xbe51e439	-0.20497216
15	0xbe9667aa	-0.29375964
16	0x3e29bb8d	0.16575451
17	0xbd003997	-0.031304922
18	0xbf22e480	-0.63629913
19	0xbe50674d	-0.20351906
20	0xbc56414b	-0.0130770905
21	0xbebf78af	-0.37396762
22	0xbeb041c8	-0.34425187
23	0x3da2a387	0.079413466

conv.conv.2.running_mean f4 [24]
0	0x41eb075d	29.378595
1	0xc1747574	-15.278675
2	0xc15ef827	-13.935584
3	0x418d247b	17.642813
4	0xc20d534a	-35.331337
5	0x41a90c98	21.13115
6	0x4199bdc1	19.217653
7	0x42e5f933	114.98672
8	0x429b3363	77.600365
9	0x4167e059	14.492272
10	0x3ebbbdf5	0.36668363
11	0x4158a7c2	13.5409565
12	0x420240b3	32.563183
13	0x42031afd	32.776356
14	0xc16a6645	-14.649968
15	0xc17d9cfa	-15.850824
16	0xc2bd492e	-94.64293
17	0x420437c1	33.054447
18	0x4207633c	33.84691
19	0x41b81935	23.012308
20	0x41d6794f	26.809233
21	0xc18fca20	-17.973694
22	0x4225e06a	41.469154
23	0x413a9f11	11.663835

conv.conv.2.running_var f4 [24]
0	0x457f5e5d	4085.8977
1	0x4503c2c3	2108.1726
2	0x44f07b86	1923.8601
3	0x4528b7b6	2699.482
4	0x46033a13	8398.519
5	0x45129d5c	2345.835
6	0x45286839	2694.514
7	0x46a5dd39	21230.611
8	0x460f4d4a	9171.322
9	0x45018496	2072.2866
10	0x4503c291	2108.1604
11	0x442915cc	676.3406
12	0x44a4be17	1317.9403
13	0x457bc470	4028.2773
14	0x45b09907	5651.1284
15	0x45272305	2674.1887
16	0x46d3a84a	27092.145
17	0x45a13532	5158.6494
18	0x451aabb2	2474.731
19	0x44e41e7a	1824.9524
20	0x45620bae	3616.73
21	0x458944f3	4392.6187
22	0x4580f978	4127.1836
23	0x459c030c	4992.381

conv.conv.4.weight f4 [32, 24, 3, 3]
0	0xbe180138	-0.14844215
1	0xbe872244	-0.2639333
2	0xbe9842ce	-0.29738468
3	0xbe23e56e	-0.16005489
4	0xbe67168d	-0.22567196
5	0xbe40041b	-0.18751566
6	0xbe18b726	-0.14913616
7	0x3c928e2a	0.017890055
8	0x3e0d8dd3	0.13823633
9	0xbe65e3dc	-0.22450203
10	0x3db6ef52	0.089323655
11	0x3e4ab46d	0.1979539
12	0xbcb9eb39	-0.02269517
13	0x3e2ec574	0.1706751
14	0x3e128a58	0.14310586
15	0xbe4b3cf7	-0.19847475
16	0x3caa6219	0.02079873
17	0x3e18ca48	0.14920914
18	0xbb77de67	-0.003782177
19	0x3eb15ab2	0.34639508
20	0x3de8ee89	0.11373622
21	0x3e2a13e5	0.16609152
22	0x3e96c34a	0.2944587
23	0x3e55cc49	0.2087871
24	0xbd1ef9ef	-0.038812574
25	0x3df8fc61	0.121575125
26	0x3e802325	0.25026813
27	0xbcfb6c95	-0.030691424
28	0xbded1b51	-0.11577476
29	0xbe5d9892	-0.21640232
30	0xbd2a1633	-0.041525077
31	0xbdcb2041	-0.09918261
32	0xbe612eb0	-0.21990466
33	0xbe28c896	-0.16482767
34	0xbe1f1236	-0.1553429
35	0xbe473dd1	-0.19457175
36	0xbea1d2aa	-0.31606036
37	0xbca377bd	-0.019954557
38	0x3e508b95	0.20365746
39	0xbdb9dc09	-0.090751715
40	0xbe6f6364	-0.23377758
41	0x3e96b879	0.29437616
42	0xbd7e7cdc	-0.062130794
43	0xbe157866	-0.1459671
44	0x3dcba822	0.09944178
45	0x3d395ed9	0.04525647
46	0xbd5bdb7c	-0.053676113
47	0xbdd4100f	-0.103546254
48	0xbe0647b3	-0.13113289
49	0xbd18e4d8	-0.037327617
50	0x3dc25f99	0.0949089
51	0xbe94fa95	-0.2909743
52	0xbe1224ea	-0.14271894
53	0x3df17360	0.11789584
54	0xbd5362c5	-0.051607866
55	0xbe490bf8	-0.19633472
56	0xbe4cdf19	-0.2000698
57	0x3c84a1f5	0.016190508
58	0x3db0cc62	0.08632733
59	0x3ddebaa3	0.10875442
60	0x3e13278c	0.14370555
61	0x3ded28c4	0.11580041
62	0x3d938266	0.07202606
63	0x3d327463	0.043568026
64	0x3d27edee	0.04099839
65	0xbd3f93ef	-0.04677194
66	0xbd550e99	-0.052015875
67	0xbd4a7db1	-0.049436275
68	0xbd7f93d1	-0.062396828
69	0xbde0aad7	-0.10970085
70	0xbd84a185	-0.0647612
71	0x3ca96298	0.020676896
72	0x3e3cac83	0.18425183
73	0x3d9bbb9f	0.07604145
74	0x3d7db861	0.061943416
75	0xbc61eb32	-0.013788985
76	0x3d2ef260	0.042711616
77	0x3da36c5a	0.07979651
78	0xbdd18fbc	-0.10232493
79	0xbdacca3f	-0.08437013
80	0x3dba01dc	0.09082386
81	0xbcf9e629	-0.030505257
82	0x3d234d75	0.03986879
83	0xbe7814e8	-0.24226725
84	0xbcf0031f	-0.029298363
85	0x3d20bfe8	0.039245516
86	0x3ea2beeb	0.31786284
87	0x3dd6eded	0.104945995
88	0x3e3a8cba	0.18217745
89	0x3e8bd99f	0.2731447
90	0xbd669b5e	-0.056300513
91	0xbd2a33f9	-0.04155347
92	0xbe24a09d	-0.16076894
93	0xbe5285d3	-0.20558862
94	0xbe1b69bd	-0.15177055
95	0xbe685384	-0.22688109
96	0xbe796ac6	-0.24357137
97	0xbdd6f6e1	-0.10496307
98	0xbe5e359d	-0.2170014
99	0x3df3542c	0.11881289
100	0x3da0f1b3	0.078586005
101	0xbd3d8d14	-0.04627712
102	0x3e4394e7	0.1909977
103	0x3e387eb9	0.18017091
104	0x3d0fabf5	0.0350761
105	0x3e085083	0.13311963
106	0xbdd19fae	-0.102355346
107	0x3cfe49e8	0.0310411
108	0x3e78f901	0.24313737
109	0x3ec5e14c	0.3864845
110	0xbc2338be	-0.009962259
111	0x3bfc223e	0.0076945117
112	0x3d90e217	0.07074373
113	0xbd1d9684	-0.03847362
114	0xbd769ec9	-0.060210023
115	0x3c8ea887	0.017414344
116	0x3d34e933	0.04416771
117	0xbda62b97	-0.08113783
118	0x3c539290	0.012913361
119	0x3d1c452f	0.038151916
120	0x3d00fc91	0.031490866
121	0x3c8e6107	0.01738025
122	0x3d9405a4	0.07227638
123	0x3e81c7c2	0.25347716
124	0x3d7f3259	0.062303875
125	0xbe2a739a	-0.16645661
126	0xbdbc9ab9	-0.092091985
127	0xbd6314eb	-0.05543987
128	0xbe5ad7f2	-0.21371439
129	0xbe4c7d3b	-0.19969647
130	0xbd840b98	-0.06447524
131	0xbd8b60a0	-0.06805539
132	0xbd72283c	-0.0591204
133	0xbdaf6ac6	-0.08565287
134	0xbdd28d02	-0.10280801
135	0x3b73be67	0.0037192346
136	0x3e645bd2	0.22300652
137	0xbe9ea749	-0.30987003
138	0x3c50e94e	0.012750937
139	0x3e938e8a	0.28819686
140	0x3db438dc	0.087999076
141	0x3ddef5c0	0.10886717
142	0x3dd05fc5	0.101745166
143	0x3e682347	0.22669707
144	0xbe16ae3a	-0.147149
145	0xbe0ab452	-0.13545349
146	0x3e3e8010	0.1860354
147	0xbd132a30	-0.035928905
148	0xbe405ab0	-0.18784595
149	0xbd9452cc	-0.07242355
150	0x3d397b5a	0.045283653
151	0x3bdd5323	0.0067542954
152	0xbe30716f	-0.17230771
153	0xbd77b37b	-0.0604739
154	0xbd43b599	-0.047780607
155	0xbe5afad5	-0.21384747
156	0x3a3915aa	0.0007060418
157	0x3dba931a	0.09110089
158	0xbc99edea	-0.018790204
159	0xbeab604b	-0.33471903
160	0xbe4efaf1	-0.20212914
161	0xbd288f35	-0.041152198
162	0x3d4ba69d	0.04971944
163	0xbc2cd9e9	-0.010550001
164	0xbd18a29a	-0.037264444
165	0xbc9ff7d4	-0.019527353
166	0x3e00b176	0.12567696
167	0x3e8531a2	0.2601443
168	0xbd95b7c4	-0.07310441
169	0x3cdff204	0.027337082
170	0x3e395c02	0.18101504
171	0xbc85460b	-0.01626875
172	0x3dd283ce	0.10279046
173	0xbc670235	-0.014099647
174	0x3ce3ad9a	0.02779274
175	0xbe20e680	-0.15712929
176	0xbd7353d9	-0.059406135
177	0x3d2eedff	0.04270744
178	0xbebb2794	-0.36553633
179	0xbe7913f7	-0.24324022
180	0xbd85f68b	-0.06541165
181	0x3e0079c4	0.1254645
182	0xbde67945	-0.11253599
183	0xbe6dbfe2	-0.23217729
184	0x3e3c6d77	0.18401133
185	0x3c19b1ef	0.009380802
186	0xbeb3708d	-0.35046807
187	0xbd2edb63	-0.042689692
188	0x3e458dc5	0.19292362
189	0xbe594d96	-0.21221003
190	0x3cb7baee	0.022428002
191	0x3d2d9ec8	0.042387754
192	0xbe00094a	-0.12503543
193	0xbe490977	-0.19632517
194	0xbdb74b93	-0.089499615
195	0xbc01ad56	-0.007914862
196	0xbdb8e585	-0.090281524
197	0xbcafe239	-0.021470176
198	0x3e1e060a	0.15431991
199	0x3d803702	0.06260492
200	0xbe2d56f0	-0.16927695
201	0xbda86a56	-0.08223407
202	0xbdaf38d7	-0.08555763
203	0xbe90cf44	-0.2828313
204	0xbe0f4302	-0.13990405
205	0xbe2aecef	-0.16691945
206	0xbe84eb64	-0.2596084
207	0x3cd0972a	0.025462706
208	0xbcaa2ef6	-0.020774346
209	0xbe4318fb	-0.19052498
210	0x3d79724c	0.060900018
211	0xbdee31e9	-0.11630613
212	0xbe7ec896	-0.24881205
213	0x3dffd611	0.12492002
214	0xbdc439ed	-0.09581361
215	0xbea459a7	-0.3209965
216	0xbdf80274	-0.12109843
217	0xbe2dc127	-0.16968213
218	0xbec79109	-0.3897784
219	0x3da56760	0.08076358
220	0xbed8c40a	-0.42337066
221	0xbe991b2f	-0.29903552
222	0x3dca6dee	0.09884249
223	0xbd2ae475	-0.04172178
224	0xbe160aab	-0.14652507
225	0xbe67f08f	-0.2265036
226	0xbe54a428	-0.20765746
227	0x3e30be01	0.1725998
228	0xbd89c420	-0.06726861
229	0xbd19f333	-0.03758545
230	0xbdab5101	-0.0836506
231	0x3e16fc52	0.1474469
232	0xbe03073e	-0.12795731
233	0xbd9d8e20	-0.07693124
234	0xbe4edeec	-0.20202225
235	0xbe40514d	-0.18781014
236	0x3e6f08eb	0.23343246
237	0x3b90c04b	0.0044174544
238	0x3db05663	0.08610227
239	0x3d894e43	0.0670438
240	0x3e065e66	0.13121948
241	0xbe067af5	-0.13132842
242	0xbe2fbdf6	-0.17162308
243	0xbc4e6f41	-0.012599767
244	0xbdbc29ee	-0.09187685
245	0xbe8a50e2	-0.27014834
246	0xbbbbf37a	-0.005735812
247	0xbd056329	-0.03256527
248	0xbe469661	-0.19393303
249	0x3ceab905	0.028652677
250	0x3dcec376	0.10095875
251	0x3d3c8124	0.046021596
252	0xbda9e200	-0.08295059
253	0xbe45e728	-0.1932646
254	0xbe4e4b8f	-0.20146011
255	0xbb886b09	-0.00416315

conv.conv.6.weight f4 [32]
0	0x3f4ff4fe	0.81233203
1	0x3f5a25b3	0.85213774
2	0x3f7fbb37	0.9989504
3	0x3f79308c	0.973397
4	0x3f470f1f	0.7775745
5	0x3f809e00	1.0048218
6	0x3f6172eb	0.88065976
7	0x3f70993e	0.9398383
8	0x3f58200d	0.84423906
9	0x3f6e9006	0.9318851
10	0x3f754cc5	0.95820266
11	0x3f5f1132	0.8713561
12	0x3f52dcb6	0.8236803
13	0x3f5cd8ce	0.8626832
14	0x3f517551	0.81819636
15	0x3f4fd8a9	0.8118997
16	0x3f681d8f	0.906701
17	0x3f4f4879	0.8096996
18	0x3f63b198	0.8894286
19	0x3f62d65e	0.8860835
20	0x3f8679ef	1.0505961
21	0x3f6f3cce	0.93452156
22	0x3f75ac91	0.9596644
23	0x3f89bfb1	1.0761625
24	0x3f80477e	1.0021818
25	0x3f672a16	0.90298593
26	0x3f5a316e	0.85231674
27	0x3f6b71d3	0.91970557
28	0x3f69cca4	0.9132788
29	0x3f63c13d	0.88966733
30	0x3f7100a7	0.9414162
31	0x3f6e3b85	0.9305957

conv.conv.6.bias f4 [32]
0	0xbea4560c	-0.320969
1	0xbe4be6ca	-0.19912258
2	0xbed7e3e6	-0.4216606
3	0xbecf1b7e	-0.40450662
4	0xbe3ce407	-0.1844636
5	0xbedf30af	-0.4359183
6	0xbecef630	-0.404222
7	0xbeb86275	-0.36012617
8	0xbe50ad8e	-0.20378706
9	0xbe0db981	-0.13840295
10	0xbf27e2a5	-0.6558021
11	0xbe023872	-0.12716845
12	0xbe5a09c3	-0.21292786
13	0xbe235d97	-0.1595367
14	0x3db2a32d	0.087225296
15	0xbea110a9	-0.31458023
16	0xbed99d83	-0.42502984
17	0x3e28b8e2	0.16476777
18	0xbf17eb17	-0.59343094
19	0xbe452b32	-0.19254759
20	0xbef762e6	-0.4831764
21	0xbe8d1d52	-0.27561432
22	0xbebfb2f5	-0.3744122
23	0xbf18c60e	-0.5967721
24	0xbec005f4	-0.37504542
25	0xbef7e44a	-0.48416358
26	0xbe96b17a	-0.2943228
27	0xbec355f9	-0.3815153
28	0xbea8ae2a	-0.32945377
29	0xbebb71f0	-0.36610365
30	0xbe932800	-0.28741455
31	0xbe1ec77e	-0.15505788

conv.conv.6.running_mean f4 [32]
0	0xbf0eeb9b	-0.55828255
1	0xbfc0dbe9	-1.5067111
2	0x40225186	2.5362258
3	0xbec7afd0	-0.39001322
4	0x3e86f5a6	0.2635929
5	0xbf046959	-0.5172325
6	0x3faa4e68	1.3305178
7	0xbf9d114c	-1.2270904
8	0xbf56baa2	-0.8387853
9	0xbfce7f5a	-1.6132615
10	0xc01ed6aa	-2.481852
11	0xbee3e3a8	-0.44509625
12	0x3f21cfb2	0.6320754
13	0x40374e3c	2.86415
14	0x3f1e420b	0.61819524
15	0xc03c720d	-2.944461
16	0x4018acb5	2.3855412
17	0xc006a40f	-2.1037633
18	0xbfd52834	-1.6652894
19	0xbeed9e2d	-0.4640974
20	0x3f05d270	0.5227423
21	0x3f9950e8	1.1977816
22	0xbe9a755f	-0.30167672
23	0x3fe05f20	1.752903
24	0xbfa0ec55	-1.2572123
25	0xc04bcb26	-3.1842742
26	0xbfeb4c87	-1.8382729
27	0x40823ae5	4.0696893
28	0xbf8dc6ad	-1.1076256
29	0xbf6e37ad	-0.93053705
30	0xbe2fa5da	-0.17153111
31	0x3fa9ad66	1.3256042

conv.conv.6.running_var f4 [32]
0	0x4097db1b	4.7454963
1	0x406f0b39	3.73506
2	0x40b5ced4	5.6814976
3	0x408f3938	4.4757347
4	0x403ee847	2.982927
5	0x40a8871f	5.2664943
6	0x40da46f9	6.8211637
7	0x3ffd0f08	1.9770212
8	0x4044b870	3.0737572
9	0x409459bc	4.635954
10	0x402169f7	2.5220926
11	0x4089b12e	4.3028784
12	0x40929587	4.580753
13	0x40a5930a	5.174199
14	0x409479f8	4.639889
15	0x405e9b14	3.4782152
16	0x40ecba38	7.397732
17	0x40e7c826	7.243182
18	0x40268e12	2.6024213
19	0x403b5c9f	2.9275281
20	0x40887d62	4.2653055
21	0x40d7d89a	6.7451906
22	0x401361e1	2.302849
23	0x40ff4be5	7.9780145
24	0x40338ef2	2.8055997
25	0x40285f02	2.6307988
26	0x401a99f2	2.415646
27	0x409cdae1	4.9017186
28	0x40a65b98	5.198681
29	0x40cee063	6.464891
30	0x402b8c15	2.680425
31	0x40873a89	4.2258954

fc.fc.0.weight f4 [256, 800]
0	0x3d29f3c1	0.041492227
1	0x3c5a889d	0.013338235
2	0xbe94dce8	-0.29074788
3	0x3cf2ca02	0.02963734
4	0x3e73da03	0.23813634
5	0x3d8de796	0.06928937
6	0x3c8d53d2	0.017251883
7	0xbcb5a6a6	-0.02217419
8	0xbd4251a2	-0.047441132
9	0x3d9ed4b1	0.077554114
10	0xbd94733a	-0.0724854
11	0xbe1bfe39	-0.15233697
12	0xbe1e4832	-0.15457228
13	0xbe822a5c	-0.25422943
14	0x3de844dc	0.11341259
15	0xbc2f095a	-0.010683382
16	0x3d45ff6a	0.048339285
17	0xbd9e0833	-0.077164076
18	0xbd842d91	-0.064540036
19	0x3e0e8fd7	0.13922058
20	0xbcd689ad	-0.026188696
21	0xbe12d7d2	-0.14340141
22	0xbda4abed	-0.08040605
23	0xbba60945	-0.005067023
24	0x3dfcc7d3	0.12342801
25	0x3d86a62a	0.06574662
26	0xbd03f819	-0.032219026
27	0x3d5cf228	0.053941876
28	0xbd21d21d	-0.03950702
29	0x3d32689a	0.043556787
30	0x3de2c3b5	0.110724844
31	0x3c48af25	0.012248789
32	0x3cdbf534	0.02685032
33	0x3defec6a	0.11715014
34	0x3e54b627	0.2077261
35	0x3d9b5a9a	0.0758564
36	0x3d5d756e	0.054067068
37	0xbd576214	-0.05258377
38	0x3dd29d03	0.10283854
39	0x3e0e0b2d	0.1387145
40	0x3ec44ac5	0.38338295
41	0x3e1b5cf0	0.15172172
42	0xbddab820	-0.1067965
43	0x3e7da69a	0.24770585
44	0x3de1993c	0.11015555
45	0x3ee4e818	0.44708323
46	0x3e9acbd0	0.30233622
47	0x3e0f6924	0.14004952
48	0x3d14e72a	0.036353268
49	0xbcdf5c47	-0.027265681
50	0xbcdb7414	-0.026788749
51	0x3df737bd	0.12071178
52	0xbd1b3c30	-0.037899196
53	0x3dfd1c78	0.123589456
54	0x3eb77df3	0.3583828
55	0xbd556204	-0.052095428
56	0x3ad83c1a	0.0016497404
57	0xbdfb420d	-0.122684576
58	0x3dc7f5a8	0.09763652
59	0x3e0ddf98	0.13854825
60	0xbd3771b6	-0.044786178
61	0x3c75746e	0.014981372
62	0xbd816770	-0.06318557
63	0x3d636d47	0.055524137
64	0xbc859160	-0.016304672
65	0xbd607ff9	-0.054809544
66	0x3d5e757f	0.05431127
67	0xbd902cd8	-0.07039803
68	0x3aaf5db9	0.0013379372
69	0x3d08d49d	0.03340589
70	0x3da892ad	0.08231101
71	0x3e06aa81	0.1315098
72	0x3e312105	0.17297752
73	0x3e18659f	0.14882515
74	0x3c08bfa6	0.008346474
75	0x3e153fb4	0.14575082
76	0xbe01a292	-0.12659672
77	0xbe6c55bb	-0.23079579
78	0xbdbfdba9	-0.09368069
79	0x3dfadf09	0.12249572
80	0xbd16d804	-0.036827102
81	0x3cb1500b	0.021644613
82	0x3dd35bd0	0.10320246
83	0xbd97333e	-0.073828205
84	0xbb12f4f8	-0.0022423845
85	0x3d18bc5e	0.037289016
86	0xbb78358b	-0.003787371
87	0xbe766493	-0.24061804
88	0xbe2beda7	-0.16789876
89	0x3ccedbb7	0.025251253
90	0xbd78d54d	-0.060750294
91	0xbe38a0db	-0.18030111
92	0xbe2d70fe	-0.16937634
93	0xbd50b116	-0.050950132
94	0xbd8f6dce	-0.070033655
95	0xbe14b7a8	-0.14523184
96	0xbd6f7a7c	-0.05846642
97	0x3c8a4c84	0.016882189
98	0xbe5a0106	-0.21289453
99	0xbdd5b23d	-0.10434387
100	0xbdb7b5e9	-0.089702435
101	0x3d51dc12	0.051235266
102	0xbdc9639e	-0.098334536
103	0xbe19423b	-0.14966671
104	0xbe63da8c	-0.22251338
105	0xbeaa6809	-0.33282498
106	0xbd8f5a97	-0.069997005
107	0xbd998eeb	-0.074979626
108	0xbdd91ade	-0.10600828
109	0x3b085ca4	0.0020807171
110	0xbdec6d19	-0.11544246
111	0xbd85fa93	-0.06541934
112	0xbe4e75c1	-0.20162107
113	0xbdf29437	-0.11844676
114	0xbc914c22	-0.017736498
115	0xbd454a1a	-0.048166372
116	0xbe146d84	-0.14494902
117	0xbdc3720e	-0.095432386
118	0xbdc27d6d	-0.09496579
119	0xbdaa7fe1	-0.08325172
120	0xbd3a4db4	-0.04548426
121	0x3d224fd1	0.0396269
122	0x3b08efc6	0.002089487
123	0xbdfa7ce6	-0.12230854
124	0x3d43c670	0.047796667
125	0xbd2cb354	-0.042163208
126	0xbe7bc581	-0.2458706
127	0xbe361f98	-0.1778549
128	0x3cb6a41c	0.02229505
129	0x3e80e4aa	0.25174457
130	0xbda2361f	-0.07920479
131	0xbd93e1e9	-0.07220823
132	0xbdfd3c47	-0.123650126
133	0xbd471745	-0.048606176
134	0x3e6cb4e4	0.2311588
135	0x3cbace77	0.022803528
136	0xbdc9aa39	-0.098469205
137	0xbdc74b1a	-0.09731121
138	0x3ae4cd65	0.0017456232
139	0x3db7df87	0.08978181
140	0xbd845f12	-0.06463446
141	0xbe1be666	-0.15224609
142	0xbdfc38fc	-0.123155564
143	0x3dd2f47c	0.10300538
144	0xbdb11d12	-0.08648123
145	0x3dfd03f4	0.123542696
146	0xbe06960f	-0.1314318
147	0xbdecc450	-0.11560881
148	0xbe34a5e8	-0.17641413
149	0xbe469855	-0.19394048
150	0x3e966d86	0.29380435
151	0x3dac8d41	0.084253795
152	0xbcac5bc1	-0.021039845
153	0xbcaad746	-0.020854603
154	0x3eab7000	0.33483887
155	0xbca7dbc4	-0.020490535
156	0x3da5f4b9	0.08103318
157	0x3e1911f8	0.14948261
158	0x3d6266a8	0.055273682
159	0x3e1438b3	0.14474754
160	0x3c62a7c1	0.013833941
161	0x3e1f96ec	0.15584916
162	0x3d194947	0.0374234
163	0x3dcd44e3	0.10022905
164	0x3dfcbd82	0.12340833
165	0x3e0f4b7e	0.13993642
166	0x3dbfc860	0.093643904
167	0x3e787745	0.24264248
168	0x3d4ba337	0.0497162
169	0xbb70a0b6	-0.0036716885
170	0x3dd43cfc	0.10363194
171	0x3d7afb6d	0.061274935
172	0x3df23945	0.118273295
173	0xbcb8aea9	-0.022544222
174	0xbdc20757	-0.09474056
175	0x3d07f7b7	0.033195224
176	0xbdc597dc	-0.096481055
177	0x3beab214	0.007162342
178	0xbe03b835	-0.12863238
179	0xbe33b72a	-0.1755034
180	0xbe313370	-0.17304778
181	0xbdb18b22	-0.086691156
182	0xbd45dd9b	-0.048307043
183	0x3c4a8aa3	0.012362155
184	0xbde121a6	-0.10992746
185	0xbe33a0d6	-0.17541823
186	0xbe1cdc19	-0.15318336
187	0x3a4c259e	0.0007787588
188	0x3c512f7b	0.012767668
189	0xbe890d32	-0.2676788
190	0x3c6c642a	0.014428178
191	0xbe3896ee	-0.18026325
192	0xbe62b564	-0.22139508
193	0x3c661f3c	0.014045533
194	0x3c8ce9aa	0.017201263
195	0xbd93933e	-0.072058186
196	0xbe4d99f0	-0.20078254
197	0xbdd2abe0	-0.10286689
198	0x3d9a0ffc	0.0752258
199	0x3db3a0cc	0.08770904
200	0x3cbfa6da	0.02339499
201	0xbcada9a0	-0.021199048
202	0xbdd1368d	-0.10215483
203	0x3dcf403d	0.10119674
204	0x3d6ee051	0.058319394
205	0x3d812202	0.063053146
206	0xbe2b37c4	-0.16720492
207	0xbd3e4d0b	-0.046460193
208	0x3da62834	0.08113137
209	0x3d039650	0.03212577
210	0x3c3701cc	0.011169862
211	0xbded753a	-0.11594625
212	0xbddf955a	-0.109171584
213	0xbd9988a1	-0.07496763
214	0x3de891e6	0.11355953
215	0xbe50d888	-0.203951
216	0x3b326ff4	0.0027227374
217	0xbcbbed2d	-0.022940243
218	0x3cdf7836	0.027279
219	0x3c3cac4c	0.011515688
220	0xbe698186	-0.22803316
221	0xbdcaa350	-0.09894431
222	0xbd1cdccd	-0.03829651
223	0x3d94e9c1	0.072711475
224	0x3c185e1a	0.009299779
225	0x3def5139	0.11685414
226	0x3e387c72	0.18016222
227	0x3dd16609	0.1022454
228	0x3db0efd0	0.086394906
229	0x3ea4f5a3	0.32218656
230	0x3d47fe95	0.048826773
231	0x3dedbe3f	0.11608552
232	0x3d2a3b7d	0.04156064
233	0x3cc8e7c1	0.024524571
234	0x3e489f59	0.19592036
235	0xbd7a5498	-0.06111583
236	0x3d8e4ac4	0.06947854
237	0x3e12ddb7	0.1434239
238	0xbcf4f8b8	-0.029903755
239	0xbc426684	-0.011865262
240	0xbd213732	-0.03935928
241	0xbdca452e	-0.09876476
242	0xbe8b304a	-0.2718528
243	0xbe6d890f	-0.23196815
244	0xbdc837f6	-0.09776299
245	0xbcef2bd8	-0.029195711
246	0xbe74be1d	-0.23900647
247	0xbdee003f	-0.11621141
248	0xbe60727e	-0.21918675
249	0xbe348137	-0.17627417
250	0xbde4f619	-0.11179752
251	0x3cdff855	0.027340094
252	0xbdf7d40e	-0.12100993
253	0xbd398c89	-0.04530004
254	0x3d1de87d	0.038551796
255	0xbe140c3f	-0.14457797

fc.fc.0.bias f4 [256]
0	0x3ba32a36	0.004979397
1	0xbc3c5e62	-0.011497112
2	0x3cc08e40	0.02350533
3	0x3caf1dbc	0.021376483
4	0xbc83d4fc	-0.01609277
5	0xbc0b2909	-0.00849367
6	0x3c3112d2	0.01080771
7	0xbc750e22	-0.014956983
8	0x3ca2b699	0.01986246
9	0xbcfd93eb	-0.030954322
10	0xbcca544f	-0.024698405
11	0xbbbd6dc0	-0.0057809055
12	0x3a9c3f2c	0.0011920682
13	0x3c00c76d	0.007860047
14	0x3bacfbf5	0.005279059
15	0xbc3807e1	-0.011232347
16	0xbb4be4f7	-0.0031111815
17	0xbc5d5c8d	-0.013510835
18	0x3c9118bb	0.017711988
19	0x3c01cf05	0.007922892
20	0xbce97873	-0.028499817
21	0xbce731b0	-0.028221935
22	0xbc20d9bf	-0.00981754
23	0x3bcdf660	0.0062854737
24	0xbca42ea3	-0.02004177
25	0xbb54ce25	-0.0032471505
26	0x3c2a5fd8	0.0103988275
27	0xbc8f471c	-0.017489962
28	0x3c2865da	0.01027819
29	0xb959d418	-0.00020773744
30	0x3c1f334b	0.009716819
31	0x3b6d146c	0.0036175502
32	0x3ca4be14	0.020110168
33	0xbc49f3c1	-0.012326182
34	0x3c618dbf	0.013766705
35	0xbcc9dac5	-0.02464045
36	0x3bddf142	0.006773145
37	0x3ca40666	0.020022582
38	0x3cd1c906	0.02560855
39	0x3ca99b1b	0.020703843
40	0x3c64d9f8	0.013967983
41	0x3c234e58	0.009967409
42	0xbcaf7404	-0.021417625
43	0xbc984a77	-0.018590195
44	0x3cd7ba92	0.02633408
45	0x3cdfc73f	0.027316688
46	0x3c2410f9	0.010013812
47	0xbcedd3af	-0.029031603
48	0x3cdf6d8e	0.02727392
49	0xbbcb2851	-0.0061998744
50	0xbc970eaa	-0.01843961
51	0xb781bf17	-1.5466981e-05
52	0xbcbdd707	-0.023173822
53	0xbcb7e98b	-0.02245023
54	0x3c4c5bdc	0.012473073
55	0xbc21b47f	-0.009869694
56	0x3ce047e3	0.027378028
57	0xbce007b6	-0.027347427
58	0xbce1dcf7	-0.027571185
59	0x3b71d37d	0.0036899738
60	0x3c71a967	0.014749861
61	0x3cccc076	0.024994116
62	0xbc8d22cc	-0.017228507
63	0x3cb9ef2f	0.02269706
64	0xbb82ef4e	-0.0039958125
65	0x3c6c3e1b	0.014419104
66	0x3c100779	0.008790844
67	0x3cd12622	0.025530878
68	0xbc5aefbd	-0.013362822
69	0xbcb86d13	-0.022512948
70	0x3c5e8267	0.013580895
71	0xbc02e1c1	-0.007988394
72	0xbc9e5342	-0.01932681
73	0x3cef45cf	0.029208092
74	0x3cf0af87	0.029380573
75	0x3cd17b54	0.025571503
76	0xbcf8f895	-0.03039197
77	0xbc92a553	-0.017901098
78	0xbce290ee	-0.027656998
79	0x3c58e093	0.013237136
80	0x3ca742f8	0.020417675
81	0x3c188239	0.009308391
82	0x3b1bec94	0.0023792135
83	0xbbac32ea	-0.005255093
84	0x3bb75dee	0.005595914
85	0x3ab7017b	0.0013962233
86	0x3b33f45c	0.0027458882
87	0xbcd3f95e	-0.025875743
88	0xbbafb40c	-0.0053620394
89	0x3cabfc9a	0.020994473
90	0x3ccf1e78	0.025283083
91	0x3cdbc061	0.026825132
92	0x3bb9fcc0	0.005675882
93	0xbcdf4912	-0.027256522
94	0xbcb639bf	-0.022244332
95	0xbc4bb48a	-0.012433181
96	0x3c9f7ca6	0.019468617
97	0xbcdb3c72	-0.026762221
98	0x3cbb92c4	0.022897132
99	0x3c1ec4aa	0.009690443
100	0xbc849ef5	-0.016189078
101	0x3cc8effb	0.024528494
102	0x3c8349de	0.016026434
103	0x3b799488	0.0038082916
104	0xbc8cc7d1	-0.017185124
105	0x3c8e64eb	0.017382106
106	0x3ca48e68	0.020087436
107	0x3b7857c6	0.0037894114
108	0x3b4203f5	0.002960441
109	0x3c4ad5de	0.0123800915
110	0xbcb1d2a6	-0.02170689
111	0x3c21de68	0.009879686
112	0xbd01efbd	-0.031722773
113	0x3c41b37b	0.011822577
114	0xbcbaa9c7	-0.022786034
115	0x3c79f623	0.0152564375
116	0xb992a4e7	-0.00027970152
117	0x3c83fbef	0.016111342
118	0xbc6df6d7	-0.014524183
119	0xbc7d081d	-0.015443829
120	0xbc85d8ca	-0.016338725
121	0x3c2d9446	0.010594433
122	0xbaad892b	-0.0013239732
123	0x3c7ed146	0.015552824
124	0x3b07952f	0.0020688286
125	0xbd03eda6	-0.03220906
126	0xbb0509e9	-0.0020300096
127	0x3c66a2f2	0.014076935
128	0x3b1231ec	0.0022307588
129	0xbc39b7a0	-0.0113352835
130	0x3ca6e922	0.020374838
131	0xbcb5cbcf	-0.02219191
132	0xbc838c33	-0.016058063
133	0xbcb5f665	-0.022212217
134	0xbc9a7fde	-0.0188598
135	0xbd02ad02	-0.031903274
136	0xbcefb719	-0.029262112
137	0xbcf187ba	-0.029483665
138	0xbb393b35	-0.002826405
139	0xbcb18eaa	-0.021674473
140	0xbbf809d4	-0.007569531
141	0x3c5d225c	0.013496961
142	0x3b97f526	0.0046373783
143	0xbc103cb3	-0.008803534
144	0x3cc20344	0.023683198
145	0x3c92e3cd	0.01793089
146	0x3c4965ac	0.012292307
147	0x3c3ea091	0.011634962
148	0x3b9adf0f	0.0047262977
149	0xbc6a9c08	-0.014319427
150	0xbbab6b80	-0.005231321
151	0x3c24de84	0.0100628175
152	0x3c7dbe0a	0.015487203
153	0xbcb13a4f	-0.021634249
154	0xbcd7147e	-0.026254889
155	0xbc845f7a	-0.016158808
156	0x3c998a49	0.018742697
157	0x3c1bc6cb	0.009507845
158	0xbcfee56b	-0.031115254
159	0xbcd91ec4	-0.026503928
160	0xbcb5eb05	-0.022206793
161	0x3ca95715	0.020671407
162	0xbc105b7f	-0.008810877
163	0x3c86755a	0.01641338
164	0x3c97d604	0.018534668
165	0xbbc59513	-0.006029734
166	0x3a763ace	0.0009392918
167	0xbb57b07a	-0.0032911585
168	0xbbe7595b	-0.0070602125
169	0x3c6d513c	0.0144847
170	0x3be5769b	0.0070026643
171	0x3c7a6f9d	0.0152854
172	0xbc986965	-0.018604944
173	0xbc626427	-0.0138178235
174	0x3c98421a	0.018586207
175	0xbc626c45	-0.013819759
176	0x3ca197cf	0.019725708
177	0x3c143bf8	0.009047501
178	0xbc15380f	-0.009107604
179	0x3c6a46ac	0.014299076
180	0xbc16e91a	-0.009210849
181	0x3c66eaec	0.014094096
182	0xbccbb8d4	-0.024868406
183	0xbc3ff179	-0.011715286
184	0x3cdcfc73	0.026975846
185	0x3c14c3e7	0.00907991
186	0xbc8fe734	-0.0175663
187	0x3c5b40ec	0.013382178
188	0xbcfa2da8	-0.030539349
189	0xbc1cdaea	-0.009573678
190	0xbcfa8f7c	-0.030585997
191	0x3a8e7ef8	0.001087158
192	0xbca97c07	-0.020689024
193	0x3c0037cb	0.007825802
194	0xbcf4000d	-0.02978518
195	0xbccd3d8e	-0.025053766
196	0xbc5bb8c3	-0.01341075
197	0x3b210a4a	0.0024572783
198	0x3b3e026b	0.002899314
199	0x3c0e2572	0.00867592
200	0x3c84e3b5	0.01622186
201	0xbaecdd6e	-0.0018071362
202	0xbcda5036	-0.026649576
203	0xbce1c858	-0.027561352
204	0x3cc45fbe	0.023971435
205	0xbce07626	-0.027400088
206	0xbcfa7dd9	-0.030577587
207	0xbcd36693	-0.025805747
208	0xbc234018	-0.009964012
209	0x3b408b3b	0.0029379863
210	0xbc49884b	-0.012300561
211	0xbcdd0f66	-0.026984882
212	0x3cdac7a8	0.026706532
213	0x3ca5ddb4	0.020247318
214	0x3bbbe3cb	0.005733942
215	0xba480b4b	-0.00076310773
216	0xbce0ee73	-0.027457451
217	0x3c3545db	0.011064018
218	0xbcdc4078	-0.02688621
219	0xbbf618d8	-0.007510286
220	0x3cfc14c1	0.030771615
221	0xbcaab56c	-0.020838462
222	0x3cecfca3	0.02892906
223	0xbc0be965	-0.008539532
224	0x3ba5ce50	0.0050599948
225	0xba8bcf16	-0.0010666575
226	0x3c9fc3f0	0.01950261
227	0xbbc3b7ed	-0.0059728534
228	0xbb986dd7	-0.004651766
229	0x3c30f1d3	0.010799843
230	0xbc2d4e4b	-0.0105777485
231	0x3b9a4ea7	0.004709083
232	0x3cf4f8f6	0.02990387
233	0xbcfdc093	-0.030975616
234	0x3b6f5389	0.0036518297
235	0xbc89c7fb	-0.01681899
236	0x3bce99d7	0.00630496
237	0xbcce19aa	-0.025158722
238	0xbc5f64e0	-0.01363489
239	0xbcbbccf6	-0.022924881
240	0xbb7d5d23	-0.003866025
241	0xbc96923e	-0.01838028
242	0x3bf082b7	0.007339801
243	0x3a44b2ae	0.0007503432
244	0x3cc59ca2	0.02412254
245	0x3ca1e292	0.019761357
246	0x3b3ef7e4	0.0029139454
247	0x3caf40a6	0.021393131
248	0x3cbd428a	0.023103017
249	0xbc8ff367	-0.017572118
250	0xbaefe71b	-0.0018303128
251	0xbbc1873c	-0.005906014
252	0xbc258549	-0.010102578
253	0xbcdb482d	-0.026767815
254	0xbcc91dc5	-0.024550328
255	0xbc8106e4	-0.015750356

fc.fc.1.weight f4 [256]
0	0x3f7b8944	0.98256326
1	0x3fa72e18	1.3060942
2	0x3f7309aa	0.9493662
3	0x3f817969	1.0115176
4	0x3f8878fa	1.0661919
5	0x3f91b9bd	1.1384808
6	0x3f91583e	1.1355054
7	0x3fa3b854	1.2790627
8	0x3f7c817b	0.9863507
9	0x3f92cde2	1.146908
10	0x3f793205	0.9734195
11	0x3f962a68	1.1731691
12	0x3f760110	0.9609537
13	0x3f813161	1.0093194
14	0x3f91b3fe	1.1383054
15	0x3f92d7e0	1.147213
16	0x3f8477e0	1.0349083
17	0x3f9e7035	1.2377993
18	0x3fa0607c	1.2529445
19	0x3f807eba	1.0038674
20	0x3f8f38f7	1.1189259
21	0x3f872cdd	1.0560566
22	0x3f971585	1.1803442
23	0x3f92f5d6	1.1481273
24	0x3f9a17ef	1.2038554
25	0x3f889fd0	1.0673771
26	0x3fa192a6	1.2622879
27	0x3f940a17	1.1565579
28	0x3f8e8ca1	1.1136667
29	0x3f97f461	1.1871454
30	0x3f905f48	1.1279078
31	0x3f970f69	1.1801578
32	0x3f8b1171	1.0864698
33	0x3f819cdf	1.0125998
34	0x3fa04475	1.2520891
35	0x3f8e813b	1.1133188
36	0x3f8aa55a	1.0831711
37	0x3f8678cb	1.0505613
38	0x3fa25632	1.2682555
39	0x3f8cd231	1.1001645
40	0x3f8dd534	1.108069
41	0x3f8c1001	1.0942384
42	0x3f8772df	1.0581931
43	0x3f97cb86	1.1858985
44	0x3f895b98	1.0731077
45	0x3fae6929	1.3625842
46	0x3f99b29b	1.2007631
47	0x3f8d426f	1.1035899
48	0x3f894071	1.0722791
49	0x3f8af867	1.0857056
50	0x3f826333	1.0186523
51	0x3f9d5c41	1.2293779
52	0x3f982a5c	1.1887927
53	0x3f86a1f6	1.0518177
54	0x3f9586fe	1.1681821
55	0x3f913ca8	1.1346636
56	0x3f9bd0c0	1.217308
57	0x3f8e2cac	1.1107383
58	0x3f979bad	1.1844383
59	0x3f8b1f86	1.0868995
60	0x3f8014f3	1.0006393
61	0x3f93a4fe	1.1534727
62	0x3f860225	1.0469404
63	0x3f8bad39	1.0912238
64	0x3f8efaa7	1.1170243
65	0x3f749f79	0.95555836
66	0x3f8dc1dc	1.1074786
67	0x3f81462f	1.0099543
68	0x3f88f2de	1.0699117
69	0x3f8277a2	1.0192759
70	0x3f931818	1.1491728
71	0x3f7b1264	0.98074937
72	0x3f8ddd54	1.1083169
73	0x3f9b7acd	1.2146851
74	0x3f92ffc4	1.1484303
75	0x3f967e64	1.1757321
76	0x3f97a26f	1.1846446
77	0x3fa31d2f	1.2743281
78	0x3f865dcd	1.0497376
79	0x3f841456	1.0318706
80	0x3f93b9b9	1.1541053
81	0x3f866224	1.04987
82	0x3f94c81f	1.1623572
83	0x3f87b865	1.0603148
84	0x3fa1ecf8	1.2650442
85	0x3f8faa99	1.1223937
86	0x3f94d522	1.1627543
87	0x3f828a7f	1.0198516
88	0x3f9e772b	1.2380117
89	0x3f8e1133	1.1098999
90	0x3f8b0e74	1.0863786
91	0x3f8caa7d	1.0989529
92	0x3f90aa10	1.1301899
93	0x3f97ce23	1.1859783
94	0x3fa86043	1.3154377
95	0x3fa4d86d	1.2878548
96	0x3f755ca7	0.958445
97	0x3f7ea699	0.9947296
98	0x3f93ef6e	1.1557443
99	0x3f98c60b	1.1935438
100	0x3f7cc263	0.9873411
101	0x3f831e05	1.0243536
102	0x3f9bfc84	1.2186437
103	0x3fa3236d	1.2745186
104	0x3f908614	1.1290917
105	0x3f8c58d6	1.096461
106	0x3f9c5f34	1.2216554
107	0x3f78ea21	0.9723225
108	0x3f7cb3e4	0.9871199
109	0x3f72fdd2	0.9491855
110	0x3f8e8d2c	1.1136832
111	0x3f87894a	1.0588772
112	0x3f9dcb1f	1.2327613
113	0x3f9a32a2	1.2046702
114	0x3f91b161	1.1382257
115	0x3f6f3721	0.93443495
116	0x3f8b8fd7	1.0903271
117	0x3faad9da	1.3347733
118	0x3f9271c6	1.1440971
119	0x3f973e65	1.1815916
120	0x3f891245	1.07087
121	0x3f8f0a58	1.1175032
122	0x3f97666e	1.1828134
123	0x3f9a3a50	1.2049046
124	0x3f82a784	1.0207372
125	0x3f842230	1.0322933
126	0x3f97c758	1.185771
127	0x3f91df9c	1.1396365
128	0x3fa01a07	1.2507943
129	0x3f87a3ba	1.059684
130	0x3f84ff76	1.039046
131	0x3f793252	0.9734241
132	0x3fa44aa0	1.2835274
133	0x3f90d9d5	1.1316477
134	0x3fa26446	1.2686851
135	0x3f88a16c	1.0674262
136	0x3f93165d	1.14912
137	0x3f93c536	1.1544559
138	0x3f883493	1.0641044
139	0x3f9aff2f	1.2109126
140	0x3f925dea	1.143491
141	0x3f84083c	1.0315013
142	0x3f8ec195	1.1152827
143	0x3f90005f	1.1250113
144	0x3f9118ec	1.133573
145	0x3f84a6e0	1.0363426
146	0x3f8aaa05	1.0833136
147	0x3f8a41cc	1.080133
148	0x3f9df796	1.2341182
149	0x3f86e73b	1.0539316
150	0x3f9226d6	1.1418102
151	0x3f9b65ee	1.2140481
152	0x3f926034	1.1435609
153	0x3f8c1412	1.0943625
154	0x3f92518d	1.1431137
155	0x3f8fde33	1.1239685
156	0x3f964410	1.1739521
157	0x3fa5b4ef	1.2945842
158	0x3f99b9b1	1.2009794
159	0x3f9f888c	1.2463546
160	0x3f8f27bd	1.1184002
161	0x3fa4e13a	1.2881234
162	0x3f880aed	1.0628334
163	0x3fa212ac	1.2661948
164	0x3f9e8fa9	1.2387592
165	0x3f9dae3e	1.23188
166	0x3f68b365	0.90898734
167	0x3f8c6aad	1.0970055
168	0x3f934f8e	1.1508653
169	0x3f93e40e	1.1553972
170	0x3f85383e	1.0407789
171	0x3f9207e5	1.1408659
172	0x3fa30e93	1.2738823
173	0x3f94ef55	1.1635538
174	0x3f9800d3	1.1875252
175	0x3f892f06	1.0717475
176	0x3f8e4f1f	1.1117896
177	0x3f6dad16	0.92842233
178	0x3f944fff	1.1586913
179	0x3f867331	1.0503904
180	0x3f8acdf8	1.0844107
181	0x3f8bc77f	1.0920256
182	0x3f6ac3b7	0.9170489
183	0x3f849d26	1.0360458
184	0x3f891368	1.0709047
185	0x3f95022a	1.1641285
186	0x3f9b1f7f	1.2118987
187	0x3f83d67a	1.0299828
188	0x3f99dcd0	1.2020512
189	0x3f885fae	1.0654199
190	0x3fabe3e7	1.3428925
191	0x3f7c4f3f	0.9855842
192	0x3fa0c35c	1.2559619
193	0x3f91eb83	1.1399997
194	0x3fae0c84	1.359757
195	0x3faad9f5	1.3347765
196	0x3f9b4744	1.2131124
197	0x3f8e6e76	1.112746
198	0x3f8f309b	1.1186708
199	0x3f77a779	0.9673992
200	0x3f7d0d06	0.98848
201	0x3f92a36f	1.1456126
202	0x3f93d823	1.1550335
203	0x3fa39e5c	1.2782702
204	0x3f9c69a9	1.2219745
205	0x3f925d61	1.1434747
206	0x3f9fb97e	1.2478483
207	0x3f84fb87	1.038926
208	0x3f887062	1.0659297
209	0x3f9c9298	1.2232237
210	0x3f7d52b3	0.98954314
211	0x3f94613d	1.1592175
212	0x3f8785bf	1.0587691
213	0x3f8f368c	1.1188521
214	0x3f8ee40c	1.1163344
215	0x3f949dc3	1.1610645
216	0x3f86d9fc	1.0535274
217	0x3f794fcc	0.97387385
218	0x3f860825	1.0471236
219	0x3f95d78c	1.1706405
220	0x3f8c4fa5	1.0961806
221	0x3f9c260e	1.2199113
222	0x3f9ac286	1.2090614
223	0x3f6fe445	0.93707687
224	0x3f9167db	1.1359819
225	0x3f87240b	1.0557874
226	0x3f85fd00	1.0467834
227	0x3fa1240c	1.2589126
228	0x3f9a8efb	1.2074884
229	0x3f99c33e	1.2012708
230	0x3f8d4d8e	1.1039293
231	0x3f93d6e0	1.154995
232	0x3f873564	1.0563169
233	0x3f95eb74	1.171248
234	0x3f714b8a	0.9425589
235	0x3f9e940a	1.2388928
236	0x3f9d9973	1.2312454
237	0x3f83fa44	1.031075
238	0x3f954d4c	1.1664214
239	0x3f864ca0	1.0492134
240	0x3f97f397	1.1871213
241	0x3f884054	1.0644631
242	0x3fad7c49	1.3553554
243	0x3f919f46	1.1376731
244	0x3f85ca6e	1.0452402
245	0x3f93ab8b	1.1536726
246	0x3f8f3315	1.1187464
247	0x3f8fb211	1.1226217
248	0x3f9fbd6f	1.2479686
249	0x3f925daa	1.1434834
250	0x3f960150	1.171915
251	0x3fa7a61b	1.3097566
252	0x3f8f2a24	1.1184735
253	0x3fa0b21d	1.2554356
254	0x3f932746	1.149636
255	0x3f894132	1.0723021

fc.fc.1.bias f4 [256]
0	0xbe3a6e9f	-0.18206261
1	0xbe8c41b6	-0.27393883
2	0xbdd62e58	-0.10458058
3	0xbb956287	-0.0045588645
4	0xbeaeabac	-0.3411535
5	0xbea94c59	-0.3306606
6	0xbeb20182	-0.34766775
7	0xbe3d9a61	-0.18515922
8	0xbea77bc3	-0.3271161
9	0xbe31dd9e	-0.17369696
10	0xbe82d1a0	-0.25550556
11	0xbeb3af36	-0.35094613
12	0xbded315d	-0.11581681
13	0xbe904365	-0.28176418
14	0xbdd21ad5	-0.10259024
15	0xbe44be87	-0.19213305
16	0xbe30fe2d	-0.1728446
17	0xbe4995f7	-0.19686113
18	0xbe5f4096	-0.21801981
19	0xbe463fb7	-0.19360243
20	0xbed418da	-0.4142521
21	0xbe73bb80	-0.23801994
22	0xbe828b2d	-0.25496808
23	0xbe91bad3	-0.28462848
24	0xbe4ff20c	-0.20307177
25	0xbe982856	-0.29718274
26	0xbe8763f1	-0.26443437
27	0xbe718116	-0.23584399
28	0xbe9ac163	-0.30225667
29	0xbe050534	-0.12990266
30	0xbebc00ad	-0.36719266
31	0xbeed47ab	-0.4634374
32	0xbebab82d	-0.3646864
33	0xbe930baf	-0.2871985
34	0xbe41a296	-0.18909678
35	0xbd9f8f51	-0.07791007
36	0xbe48b374	-0.19599706
37	0xbe6fc8a2	-0.23416379
38	0xbe98698d	-0.2976803
39	0xbeafcf07	-0.34337637
40	0xbe4ec81e	-0.20193526
41	0xbec2dd6a	-0.3805955
42	0xbe662945	-0.2247668
43	0xbe10ee8b	-0.14153497
44	0xbe0b0bdb	-0.13578741
45	0xbef6a48a	-0.48172408
46	0xbea30804	-0.31842053
47	0xbad1b32a	-0.001599883
48	0xbec7cefd	-0.39025107
49	0xbe7bf0d2	-0.24603584
50	0xbe3cf852	-0.18454102
51	0xbe2b0d67	-0.16704331
52	0xbeb42675	-0.3518559
53	0xbea26e04	-0.3172456
54	0xbeec4267	-0.4614441
55	0xbe4d361d	-0.20040174
56	0xbec343dc	-0.3813771
57	0xbcfa7974	-0.030575491
58	0xbe1bffa0	-0.15234232
59	0xbe93bd17	-0.28855202
60	0xbd9aa3d7	-0.07550781
61	0xbeec1588	-0.46110177
62	0xbddc43e0	-0.10755134
63	0xbe7db4b6	-0.24775967
64	0xbe14cc99	-0.14531173
65	0x3c45ae50	0.012065485
66	0xbd008299	-0.031374548
67	0xbe94a1bb	-0.2902964
68	0xbf009c84	-0.50238824
69	0xbd91a172	-0.071108714
70	0xbeb651d3	-0.35609302
71	0xbe9b6776	-0.30352372
72	0xbeafe6a3	-0.3435565
73	0xbdead3ad	-0.11466155
74	0xbec92271	-0.3928409
75	0xbed6702c	-0.41882455
76	0xbe92b64d	-0.2865471
77	0xbe893fdf	-0.26806542
78	0xbe17f9ed	-0.14841433
79	0xbe234a2d	-0.15946265
80	0xbec5d79c	-0.3864106
81	0xbe8a5e54	-0.27025092
82	0xbf050ae4	-0.5196974
83	0xbe500a8a	-0.2031652
84	0xbecf42b7	-0.40480587
85	0xbe84d048	-0.25940156
86	0xbe87e83a	-0.26544362
87	0xbe1ee46f	-0.15516828
88	0xbec8aeda	-0.391959
89	0xbee2f423	-0.44326887
90	0xbe7c7c25	-0.24656732
91	0xbeb69bac	-0.35665643
92	0xbebf5e31	-0.3737655
93	0xbe8a23f1	-0.26980546
94	0xbe2cf033	-0.16888504
95	0xbe59ebe2	-0.21281388
96	0xbcd5d761	-0.026103677
97	0xbe956060	-0.2917509
98	0xbea31bf7	-0.31857273
99	0xbea9c3a8	-0.33157086
100	0xbe9d9e7c	-0.30784976
101	0xbdda4ea0	-0.10659528
102	0xbe4db580	-0.20088768
103	0xbe9ea586	-0.3098566
104	0xbeb35f03	-0.35033426
105	0xbec57dd8	-0.38572574
106	0xbedbd075	-0.42932478
107	0xbe927f2e	-0.28612655
108	0xbea0dfdd	-0.31420794
109	0xbe193409	-0.14961256
110	0xbece722f	-0.4032149
111	0xbea86fbb	-0.32897744
112	0xbe928e44	-0.28624165
113	0xbe7d5d54	-0.24742633
114	0xbe559cf0	-0.20860648
115	0xbe57fae3	-0.210918
116	0xbe5b1ce3	-0.21397738
117	0xbe9e7002	-0.3094483
118	0xbe9fbdab	-0.31199393
119	0xbebbfc3a	-0.3671587
120	0xbea793b3	-0.32729873
121	0xbdfb8512	-0.122812405
122	0xbea52f03	-0.3226243
123	0xbeafada1	-0.34312156
124	0xbe3ab695	-0.18233712
125	0xbe9d210c	-0.30689275
126	0xbe9c4efd	-0.30529013
127	0xbe947fea	-0.2900384
128	0xbe893180	-0.26795578
129	0xbe7448e7	-0.23855935
130	0xbef6e8db	-0.4822453
131	0xbd62f088	-0.05540517
132	0xbe35ae07	-0.17742167
133	0xbe096325	-0.13416727
134	0xbf0fd568	-0.5618501
135	0xbe840488	-0.25784707
136	0xbe4b4246	-0.198495
137	0xbefd85fd	-0.49516287
138	0xbe7c7f20	-0.2465787
139	0xbef2212c	-0.47290933
140	0xbea04f7d	-0.31310645
141	0xbe3209bd	-0.17386527
142	0xbeabef0a	-0.3358081
143	0xbea9833e	-0.33107942
144	0xbdc096f9	-0.09403796
145	0xbe882f44	-0.2659856
146	0xbe79e2c1	-0.24402906
147	0xbec5b3f3	-0.38613853
148	0xbd5e47f0	-0.054267824
149	0xbe5b913c	-0.21442121
150	0xbe85f89b	-0.26166233
151	0xbe99468c	-0.29936635
152	0xbe443054	-0.1915906
153	0xbe80e867	-0.2517731
154	0xbe971f4d	-0.29516068
155	0xbe93741e	-0.28799528
156	0xbea3bef1	-0.31981614
157	0xbedb2461	-0.42801192
158	0xbdae5fec	-0.085143894
159	0xbe2e80a7	-0.17041264
160	0xbe8a1913	-0.26972255
161	0xbe3f08d0	-0.18655705
162	0xbe91de12	-0.2848974
163	0xbea74cc1	-0.32675746
164	0xbe76d1d1	-0.24103476
165	0xbec2664b	-0.37968668
166	0xbe8effc5	-0.27929512
167	0xbe6014c5	-0.21882923
168	0xbe268887	-0.16263019
169	0xbe3c85c6	-0.18410406
170	0xbe9f07a7	-0.31060526
171	0xbea2d20e	-0.31800884
172	0xbe8c5636	-0.27409524
173	0xbea62267	-0.32448122
174	0xbe9fb831	-0.31195214
175	0xbe8d3d22	-0.27585703
176	0xbe9876ac	-0.2977804
177	0xbe482b48	-0.1954776
178	0xbeaf2210	-0.34205675
179	0xbe88f6a0	-0.2675066
180	0xbe8cb2ff	-0.27480313
181	0xbe37774e	-0.17916605
182	0xbe8d52e1	-0.27602294
183	0xbeaa4e07	-0.33262655
184	0xbc83e306	-0.016099464
185	0xbdf5d240	-0.12002993
186	0xbec59534	-0.38590395
187	0xbe7b93d0	-0.24568105
188	0xbe6ca936	-0.23111424
189	0xbe873d99	-0.26414183
190	0xbe76474c	-0.24050635
191	0xbecdde1f	-0.40208527
192	0xbe81bcdc	-0.253394
193	0xbeaf110d	-0.34192696
194	0xbe94d743	-0.29070482
195	0xbe320e72	-0.17388323
196	0xbe4ad5a0	-0.19808054
197	0xbe26c4dc	-0.16286033
198	0xbebc2953	-0.36750278
199	0xbe206cea	-0.15666547
200	0xbe876afc	-0.2644881
201	0xbeeeb4e3	-0.4662238
202	0xbebc237b	-0.3674582
203	0xbec612de	-0.3868627
204	0xbe8893eb	-0.26675352
205	0xbea14aaa	-0.31502277
206	0xbea305f1	-0.3184047
207	0xbe7a61b1	-0.24451329
208	0xbe869f95	-0.26293626
209	0xbebf4175	-0.37354627
210	0xbeb66ba0	-0.35628986
211	0xbe5045e4	-0.20339161
212	0xbebd7945	-0.37006584
213	0xbe857ab1	-0.2607017
214	0xbead7897	-0.33881065
215	0xbe7bb652	-0.24581268
216	0xbe916c1a	-0.28402787
217	0xbd7db660	-0.061941504
218	0xbe53c43d	-0.20680328
219	0xbe909ffb	-0.28247055
220	0xbe56e717	-0.20986591
221	0xbea73d86	-0.32664126
222	0xbed2366a	-0.4105714
223	0xbe7626f6	-0.240383
224	0xbe8a475c	-0.27007568
225	0xbe934346	-0.28762263
226	0xbd903aa1	-0.070424326
227	0xbe8fa165	-0.28052822
228	0xbe9ebd98	-0.31004024
229	0xbe3fa73a	-0.18716136
230	0xbe725c9a	-0.23668137
231	0xbe0dfa2d	-0.13864966
232	0xbeccb056	-0.39978284
233	0xbe6b5521	-0.22981693
234	0xbea08bf3	-0.31356773
235	0xbdf71435	-0.12064401
236	0xbe879fc4	-0.2648908
237	0xbe871ad3	-0.26387653
238	0xbe6d7e11	-0.23192622
239	0xbecc25a1	-0.3987246
240	0xbe585963	-0.21127848
241	0xbe9d154d	-0.30680314
242	0xbe1f1870	-0.15536666
243	0xbeb88671	-0.3604007
244	0xbe5fe1ab	-0.21863429
245	0xbeecab81	-0.46224597
246	0xbeda907d	-0.4268836
247	0xbec7541f	-0.38931367
248	0xbed3976b	-0.4132646
249	0xbeaa878b	-0.33306536
250	0xbe6f30c3	-0.23358445
251	0xbea84d06	-0.32871264
252	0xbe920d8d	-0.28525963
253	0xbe881da2	-0.26585108
254	0xbea53de2	-0.32273775
255	0xbeb4cc48	-0.35312104
